pytorch/02-ANN-Artificial-Neural-Networks/IrisDatasetModel.pt (torch, 2795 bytes, 6 tensors)

fc1.weight f4 [8, 4]
000000 a0 47 74 3d e0 0a 72 3d 92 2c d1 be 76 7a 94 be
       0.05963862 0.059092402 -0.40854317 -0.2899968
000010 fe 50 fc be 30 0d ec be ae 5c fc 3e 90 83 d3 3e
       -0.49280542 -0.4610381 0.4928946 0.41311312
000020 5c 73 31 3f da 44 65 3f 1d 4f 0b bf ce 6f 7a bf
       0.6931665 0.89558184 -0.5441759 -0.9782685
000030 a9 5b 91 3e d0 57 26 be 89 9c 72 bb c7 cb 20 3e
       0.28390244 -0.16244435 -0.0037019572 0.15702735
000040 6e e7 86 3e 8e 95 92 be 60 02 46 be b8 42 ec be
       0.26348442 -0.28629726 -0.19336843 -0.46144652
000050 a7 72 d8 3d bc 30 bb be d8 f9 3c 3f 99 eb 47 3f
       0.10568743 -0.3656062 0.7381873 0.7809387
000060 b8 b4 31 3f ec d0 9b 3d 42 8c 38 3f 88 ba 77 3e
       0.6941638 0.07608208 0.72089016 0.2419225
000070 a6 27 ca 39 ac 7c 17 bf 9f 0e 86 3f 3b 8e 98 3f
       0.00038557983 -0.5917461 1.0473212 1.1918405

fc1.bias f4 [8]
000000 68 59 4c be fa eb 9c 3e 99 63 93 3f 8b c3 c1 be
       -0.19955981 0.30648786 1.151477 -0.378445
000010 f8 b4 47 be 9a 8e 1d bd 5b 76 35 3f bb 9b 03 bf
       -0.19502628 -0.038466074 0.7088372 -0.514095

fc2.weight f4 [9, 8]
000000 44 5a de 3d 3b 13 86 3e ce 56 3b 3f 15 37 79 be
       0.108570606 0.26186547 0.7317933 -0.24337418
000010 68 eb 14 be 15 45 05 3e f3 02 84 3e d6 92 04 bf
       -0.14542925 0.13014634 0.257835 -0.51786554
000020 ce ae f5 bd 89 ab af 3e dc c0 62 be c6 e4 68 3e
       -0.11996232 0.34310558 -0.22143883 0.2274352
000030 1a 15 52 3e 2e 9b ad be 7a b3 b4 be 54 5f f0 3d
       0.20515862 -0.33907455 -0.3529318 0.117369324
000040 e2 a1 31 3e 77 74 a0 3e 41 38 d2 be de b4 a1 3e
       0.1734691 0.31338856 -0.41058543 0.31583303
000050 ae a5 80 be 19 3b 57 3f 0e 0c d2 3d 8b 54 5f 3f
       -0.25126404 0.8407455 0.102562055 0.8723838
000060 b0 00 1d 3d 06 a2 5f 3e 01 3f 37 3f 2c 89 d1 bb
       0.038330734 0.21839151 0.7158051 -0.006394526
000070 00 9e 70 3b dc 5b a3 bd a7 e8 ab 3e aa 5b e3 be
       0.003671527 -0.07976505 0.33575937 -0.44405872
000080 75 de 36 be 57 8a 2a be 7e c9 44 be 81 23 9a 3e
       -0.17858298 -0.16654335 -0.19217488 0.30105212
000090 0e cb 4c 3e 3c 13 15 3e bc 10 d9 bd 48 df 92 be
       0.19999334 0.14558119 -0.10598895 -0.28685975
0000a0 c0 15 9a 3d 09 41 a7 3e d0 76 ca be 8c f1 a2 be
       0.0752368 0.32666805 -0.39543772 -0.3182491
0000b0 70 63 00 bd 83 b2 19 3f 9e c0 0a 3f 95 c1 3a 3f
       -0.03134483 0.6003801 0.5420016 0.7295163
0000c0 e6 4f 7f be 48 b6 aa be 8d b2 d8 be 34 b8 ce 3c
       -0.24932823 -0.33342195 -0.42323723 0.02523432
0000d0 52 a5 4f 3e 8d 44 52 3f cb da 0a 3f c9 ac ab 3e
       0.20277908 0.8213585 0.542401 0.33530262
0000e0 cb 12 b0 be 2a 4c 31 3e 1c e5 7a 3f 3d 21 1a 3e
       -0.34389338 0.1731421 0.98005843 0.15051742
0000f0 8d 40 36 be 59 a2 69 be ea 90 fe 3e 40 f5 23 bf
       -0.17798062 -0.22815837 0.49719936 -0.64046097
000100 14 a5 4e be 50 be 84 3d 13 0b d0 be a5 7e 4c be
       -0.2018016 0.06481612 -0.4063345 -0.19970186
000110 e8 67 3b bd 61 c7 13 be be 5d af 3d 70 54 57 bd
       -0.04575339 -0.14431526 0.08562802 -0.05257076

fc2.bias f4 [9]
000000 a2 85 2e 3d c0 0f 0e bd a6 ea 9b be ac 10 39 3f
       0.04260791 -0.03468299 -0.3045246 0.72291064
000010 50 14 a3 3c 2e 18 19 bf 24 94 55 be 8d 32 38 3f
       0.019907147 -0.5980252 -0.20857292 0.71952134
000020 88 32 e7 3b
       0.0070555843

out.weight f4 [3, 9]
000000 4a 43 97 3e dc aa b8 3d e1 13 e6 be e5 ba 3a 3f
       0.29543525 0.09016964 -0.4493704 0.7294143
000010 96 86 ba bd d1 29 0f bf bd 88 94 be 61 05 05 3f
       -0.091077015 -0.5592318 -0.29010573 0.5196133
000020 e8 4a e9 3d 5c ec 9b 3e df e4 95 3e e1 f3 a1 3d
       0.1139124 0.30453765 0.29276177 0.07907844
000030 a9 03 94 3e 2c b6 ec 3d 35 06 ed 3d cc d4 b2 3e
       0.28909042 0.11558184 0.115734495 0.34927976
000040 9a 91 4a 3e 39 fe 27 3e f4 e3 43 bf d0 e1 ef 3c
       0.19782105 0.16405572 -0.76519704 0.02928248
000050 61 99 4d 3f 55 80 7a bf e0 64 83 3d f6 25 5a 3f
       0.8031216 -0.9785207 0.06415725 0.85214174
000060 05 66 0c 3f d1 b7 4d bf 55 d9 d1 3c
       0.5484317 -0.80358607 0.025616327

out.bias f4 [3]
000000 a3 42 07 3f 14 c2 8a 3e 65 89 39 bf
       0.52836055 0.27101195 -0.7247527
